ReinforcementLearning/benchmarking/policy_REINFORCE_with_baseline.pt (torch, 39513 bytes, 6 tensors)

fc1.weight f4 [128, 4]
00000000: 81ec 0e3d 6ccd 403e 3a93 903e ea22 083e
00000010: b54d 343c 81e4 77be 6cf0 13be ab8f 0f3d
00000020: 16c1 503e ce8b b83e 74fe 8abd 1110 c53e
00000030: 2a24 e7be 2743 c6be c50f f23e 8f5c 863d
00000040: fddf 2e3e c279 10be 28eb babe 343b 9b3d
00000050: 9f66 f5be 008e 3fbe bcb4 443e 7feb b2be
00000060: 16d2 13bd 5ae7 aa3d f07d 9e3e 8732 813e
00000070: eda5 53bd dee8 9ebe 372c 75be 5f7a 943d
00000080: 689e c83e d510 e3be 6267 90be 7e81 81bd
00000090: 00ac d13e d318 a33e 2c54 113f 0341 0abe
000000a0: 75f8 ee3e e7bb 3c3e 9117 a2be 34be 753e
000000b0: c090 63bd 6919 63bd 81f0 4bbe ede1 e23c
000000c0: e908 f7bc 0d9c d13e b77f 01bf 7c67 bb3e
000000d0: c65e de3e 12d8 59be 0009 913d 1851 a8bb
000000e0: f323 73bd 5928 743e 0231 aabe 2ea3 6d3e
000000f0: aa79 4fbe 5a21 e03e b513 9ebe 296e 7ebe
00000100: 4433 94be b9b0 ae3e c5ce a33e 127e 563e
00000110: d391 f8bd 596d ab3d 559d 92be 5374 6abe
00000120: fc4f d0be 15dc c2bd 2e8f dd3e 30ff 6d3e
00000130: c238 adbe 6428 8dbe 9f8b 813e 9ce4 ea3e
00000140: 7479 c8be 23d9 debd 040b 0cbf 1c03 06bf
00000150: af39 253e ca74 d6be cd7f 033f 5eee 81bd
00000160: 3356 073e b7e2 d2bd a162 f83e 305e d63e
00000170: 64d0 c73e e9d7 87be bf96 08bf 994f 3b3e
00000180: 37a7 623e 9409 aabe f857 a53e adda 88be
00000190: f563 873d abc8 91be 53af 943e 2224 febd
000001a0: 73aa 0ebc 03ec b6be 6b32 243c 14ca 97bd
000001b0: 086b 8ebb 5764 bb3e d514 e5be 9822 18be
000001c0: 549e 683e 6fcc ab3e 946d 773e 45b8 d0be
000001d0: b9f3 14be c1d4 e63e 7a5b c83e 0ec7 d83e
000001e0: 2dd1 80be 9e16 a0be 818a debd 0072 ce3e
000001f0: 0e28 eabe bef6 67be 25a3 f4bd c631 c1be
00000200: f1d0 9b3e b388 913e 9e65 4a3e e0c5 483e
00000210: 00f4 e83d 93c4 62bd e86f 1bbe a293 60be
00000220: e226 babd 8181 063e d097 05be 8728 0a3e
00000230: 271c 9f3e 8eec b7be 5583 a6be d3f5 8dbe
00000240: 8c41 b63e 4762 10bf 3f70 88be bf29 093e
00000250: b45d 823e fb6f 8e3e e699 58be 8683 94bd
00000260: eb52 91be e34a 32bd 750b 65be 1ebb 273e
00000270: 56e5 bcbe 1935 10be a019 adbd d70b 8bbc
00000280: aa42 c0bc 63ac 12be a141 bb3e 28d4 f1be
00000290: 7041 8f3c b0c5 c33e 6452 f8be a73b 393d
000002a0: 5f75 01bd d761 04bf 70b9 9fbc c1c7 ad3e
000002b0: 5980 d8bd 47a8 dbbd eedc fabe 6e58 dcbe
000002c0: 0d39 e4bd 1787 66bc 63fb ee3e 4078 2bbe
000002d0: 7439 94be 3247 8dbe f9de 9ebd 8177 633e
000002e0: c65b 89bd 8e94 c8be 6827 9abe eddc da3e
000002f0: 518f e83e ddbd 3d3e 02aa 01bf a5b5 b73d
00000300: 3ed6 adbc 6836 de3e d63a 953e b867 453c
00000310: 9fbb b8bd c837 0c3d 0c4c 8ebe b37b d73c
00000320: f090 983e c9c7 1cbe 5caa 633e a7b6 a23c
00000330: d1b1 42bd c315 5a3e 2569 9abe 8fa2 5dbd
00000340: 0104 cabe c329 1bbe 1949 833e 3ce2 f63e
00000350: df31 02be ca80 b93e 86a0 e13e cd4d af3e
00000360: fabe 83be dd59 213d 35b6 08bf bc8c 0ebe
00000370: 6bd9 cf3e 73c9 c63d 47fb 403e e66f 043f
00000380: e50a 893e bef9 d43e 8cd1 6fbe f852 a03d
00000390: 1d14 8c3d 5ec3 b1be 080e 913e 44d6 553e
000003a0: 526c b2bd de40 b0bd 517e cdbd 871a 583e
000003b0: 5ef5 a53d 0053 9b3e f483 d83e 1d99 8ebd
000003c0: 55b9 883e 35f8 a83e f550 9e3e 039f c1be
000003d0: e43a e33e 4be3 103f ec6a 30bd f459 58be
000003e0: ff3a ba3c e25d a4be adf3 6a3d 3835 a93e
000003f0: 8462 3cbd 36fc a53d 7004 a43e b7e8 f43e
0.034893516 0.18828362 0.28237325 0.13294569 0.011004855 -0.24208261 -0.14447182 0.03504912
0.20386156 0.36044163 -0.06786814 0.3848882 -0.45144778 -0.38723108 0.47277656 0.06560623
0.17077632 -0.14108947 -0.36507535 0.075796515 -0.47929856 -0.18706512 0.1920957 -0.34945294
-0.036089025 0.08344908 0.30955458 0.25233862 -0.05167191 -0.3103704 -0.23942648 0.07249903
0.39183354 -0.4434878 -0.28203875 -0.06323527 0.40951538 0.31854877 0.5676906 -0.13501363
0.46673933 0.18431054 -0.31658605 0.23998338 -0.055557966 -0.055444155 -0.19915964 0.02769562
-0.030155616 0.4093937 -0.505855 0.3660239 0.4343168 -0.2127383 0.07081795 -0.0051366203
-0.059360456 0.23843516 -0.33240515 0.2320678 -0.20261255 0.43775445 -0.3087441 -0.2484671
-0.28945363 0.34119204 0.3199369 0.2094653 -0.12137189 0.08370466 -0.2863566 -0.22895937
-0.40686023 -0.095146336 0.432733 0.23241878 -0.33832365 -0.27569878 0.25301835 0.4587754
-0.3915516 -0.10881259 -0.5470431 -0.52348495 0.16135286 -0.41885978 0.51366884 -0.06344293
0.13216476 -0.10297149 0.48512748 0.41868734 0.39026177 -0.26531914 -0.5335502 0.18292083
0.221341 -0.33210433 0.32293677 -0.26729336 0.06610862 -0.2847341 0.29040012 -0.124092355
-0.00870763 -0.35726938 0.010021786 -0.0741159 -0.004346255 0.3659999 -0.44742456 -0.14856946
0.22716647 0.33554408 0.24162894 -0.40765586 -0.14546098 0.45084193 0.3913229 0.42339367
-0.25159588 -0.31267256 -0.10866261 0.4032135 -0.45733684 -0.22652718 -0.1194518 -0.37733287
0.30432847 0.28424606 0.19765326 0.19606733 0.11374664 -0.05536325 -0.15179408 -0.21931317
-0.090894476 0.1313534 -0.13046193 0.13492022 0.31076166 -0.35922664 -0.32522073 -0.27726611
0.35596883 -0.5639996 -0.26648137 0.13394831 0.25462115 0.2781981 -0.21152458 -0.072516486
-0.28383574 -0.04352845 -0.22367652 0.16379973 -0.3689372 -0.14082755 -0.08452153 -0.01697342
-0.023469288 -0.14323573 0.36573508 -0.47232175 0.017487258 0.3823676 -0.4850036 0.045222905
-0.031606074 -0.5171179 -0.019497603 0.33941463 -0.105713554 -0.10725456 -0.4899668 -0.43036216
-0.11143694 -0.014070294 0.46676168 -0.1674509 -0.28950083 -0.2759338 -0.077573724 0.22213556
-0.067069575 -0.39175838 -0.3010819 0.42746678 0.45421842 0.18529458 -0.50650036 0.08970193
-0.021220323 0.43400884 0.2914645 0.012048654 -0.09020161 0.034232885 -0.27792394 0.026304102
0.2979808 -0.15310587 0.22232956 0.019862486 -0.04753286 0.21297364 -0.30158344 -0.054110106
-0.3945618 -0.1515265 0.25641707 0.48219478 -0.12714337 0.3623107 0.44067782 0.34239045
-0.2573164 0.03939234 -0.53403026 -0.13920873 0.40595564 0.09706392 0.18845855 0.51733243
0.26766124 0.41596788 -0.2341978 0.07828325 0.06839774 -0.34719366 0.28331017 0.20882517
-0.08712067 -0.086061224 -0.100338586 0.2110387 0.08103441 0.3033676 0.42288172 -0.06962798
0.26703897 0.33001867 0.3092114 -0.3781663 0.44380867 0.5659682 -0.04307072 -0.21128064
0.02273321 -0.32102877 0.057361294 0.33048415 -0.04599239 0.08104746 0.32034636 0.47833797

fc1.bias f4 [128]
00000000: e459 853e ed00 923d fa89 dc3d dc2c d63e
00000010: b7da b1be 5947 fabd a1d3 c73e d670 07be
00000020: cb49 85be e547 d43e 1047 653e 3eb8 833d
00000030: a701 4ebd 4e0f 88bd 0084 a83e 0f43 b1be
00000040: a72d a8be 8748 f4bd 08cb 013e acba 1a3d
00000050: fdda 92be 2f09 53be 6d0f d93e 6f56 82be
00000060: 4d48 93be 1d41 c93c 94d1 acbe 702f 563e
00000070: e449 c2be 8d42 003f 48f9 b7be b717 92be
00000080: a071 57be 0680 dfbe 0f44 b1bd e164 9c3e
00000090: 61db 353c aaf9 cbbe da9d 733d 14bb ecbe
000000a0: b00a 5a3e d8c9 55be 694a 2e3e 46b3 4dbe
000000b0: 1c7f 6b3d 3529 1f3d 365e 45be 2f1a aebe
000000c0: 1678 b03e 9b53 bf3e 4240 843e 1901 ee3e
000000d0: d84e cdbe b7cf e2be d8fc a0be 88ad e0be
000000e0: b8a0 303d 2f1a b53c 5054 adbd 7368 b23e
000000f0: 95f7 0c3f 6a15 313e 775a df3d ce5d be3e
00000100: da68 233e 68b6 2ebe 28ec d6be 9549 e8be
00000110: b31e cd3e e538 e03e 6431 62be 571d 55be
00000120: b483 90be 94be e23e 5a37 ebbe 8042 e03e
00000130: fed3 283e 177f ecbe f5ad a83e 8522 4cbe
00000140: 5fa2 753e 53df 07be 4d8f bcbe e34d 5dbe
00000150: 709a 6c3e 84ef 503e f033 e63e 5f0d 81bd
00000160: 20f0 a53e b5a2 423e c11c a9bd 2955 0b3f
00000170: e82b a43e 22ce 85bd 2b55 8dbe 50b0 f6bd
00000180: 65cf 403e 4e5a afbe c702 563e f91e e23d
00000190: bc9a bb3e 4c16 583e 0280 533e f7ed 5d3d
000001a0: 0cab 823e 97a4 c4bd 72ee babe 81b2 953e
000001b0: 7c61 233e fddb f8bd e0d7 89bd 9620 0a3e
000001c0: a4ce 77be 0d94 d83e 91c9 cabc 4641 743e
000001d0: 4610 d6be ab24 93be 8954 983e 2c2e dcbe
000001e0: 3dde 9a3e a106 b1be ea16 a33e 4a85 adbc
000001f0: 44b2 e3be 56ce 9b3c 939f 29b9 8fbe 003d
0.26045144 0.07129083 0.107685044 0.418311 -0.3473718 -0.1222064 0.39028648 -0.13226637
-0.26032862 0.414611 0.2239039 0.06431626 -0.050294545 -0.06643544 0.32913208 -0.34621474
-0.3284733 -0.11927896 0.12675107 0.03777568 -0.286827 -0.20608972 0.4239458 -0.2545657
-0.287661 0.024567181 -0.33753645 0.20916533 -0.37947 0.5010155 -0.35932374 -0.28533718
-0.21039438 -0.43652362 -0.08655559 0.30545714 0.011099667 -0.39838916 0.05947671 -0.4623648
0.2129314 -0.20877779 0.17020573 -0.20087919 0.057494268 0.038857657 -0.1927422 -0.34004351
0.34466618 0.37368473 0.25830275 0.46485212 -0.40099216 -0.442991 -0.31442904 -0.43882394
0.043122023 0.022107212 -0.08463347 0.34845313 0.5506528 0.17293325 0.10905927 0.37180942
0.15957966 -0.1706177 -0.41977048 -0.4536864 0.40062484 0.43793407 -0.22089154 -0.20811974
-0.28225482 0.44286025 -0.45940667 0.43800735 0.16487119 -0.46190712 0.3294522 -0.19935043
0.23987721 -0.13268785 -0.3682808 -0.21611743 0.23105788 0.20403868 0.449615 -0.063013785
0.32409763 0.1900738 -0.082574375 0.5442682 0.32064748 -0.06533457 -0.2760404 -0.12045348
0.18829115 -0.34248585 0.20899497 0.11041064 0.3664149 0.21102256 0.206543 0.05418202
0.25521123 -0.096017055 -0.36510044 0.2923775 0.15955156 -0.121513344 -0.06730628 0.13488993
-0.24199921 0.42300454 -0.024754317 0.23853025 -0.4180929 -0.28738913 0.29751995 -0.43003976
0.3024768 -0.3457537 0.3185342 -0.021181721 -0.44471943 0.019019287 -0.00016176542 0.03143173

fc2.weight f4 [64, 128]
00000000: 3869 643d 7a30 bfbb a4de cfbc bc91 b4bd
00000010: 75ca b33d a91f e83c 2797 db3b 8270 163c
00000020: 2f35 4a3d 843d 90bd e80b 393d 7336 343d
00000030: 5be8 d43d c8cd e4ba f327 683d a9e3 833d
00000040: bd95 7c3d c38e 693d d1d1 893d b25e 883c
00000050: 002f 9fbd 4589 2fbd af0f 763b 4b15 eb3d
00000060: 1c0f 5abd 84d2 32be 147b e8bb 3441 3f3e
00000070: 7f2b a7bc 1126 b43d 0eef 323d 2b38 7e3d
00000080: 4746 67bd 19e0 4b3b 0e1a 233e 759c edbd
00000090: 4ff1 403d 1a59 0abd a1a4 6a3c 6cff 36bd
000000a0: 89f6 62bd e1a8 323e 8650 633d 8d7b 59bd
000000b0: 1786 f0bc 27a1 513c f638 863d 7971 c3bb
000000c0: 5e95 fcbc 459c 40bc 2736 443c c1a5 163e
000000d0: 6bbd 1f3d 5b77 4e3d 8d9f 263d 535a 1b3b
000000e0: fa59 f63d c979 98bc 6840 ab3d 43b4 7cbd
000000f0: b183 9a3c c0fe 823a b309 0e3d ab09 9dbd
00000100: d723 ab3c 3426 07bd e24a c93d 63f0 373e
00000110: 1d9f acbc 50f7 e63c d4a7 093d 7a1d 943d
00000120: 07bf b0bd 033c 00be 457b fd3a 1cec f1bc
00000130: 9f27 043e c601 af3d 950e c3bd 646f 813d
00000140: 8f22 dabd 37fd 1cbc 7685 6c3d 8635 8cbd
00000150: 9190 68bc 90bc cabd 2430 d0bc e7dc aa3b
00000160: 8b12 72bd 7b0c 77bd 0f2e 0c3e 8d98 c7bd
00000170: 31a4 023d 8533 2ebe 8f56 f6bd e09b 80bd
00000180: c11c 5f3d ff98 0b3c 7f71 efbc 2d63 463d
00000190: 3e26 b23d 21d9 4cbd 5641 feba 56e6 d4bd
000001a0: e29c abbd f37d 253d ce86 ffbc 7702 21bd
000001b0: a8a0 263d 1aee 88bd 8732 8cbc f5c6 013e
000001c0: da06 5d3c ffdf febd 2b9f 4fbd 575c b33c
000001d0: 0b20 8ebd d6dc b3bd 86d1 13bd 061f 90bd
000001e0: f89e ffbb b147 bbbc 9616 6bbd 4060 21bd
000001f0: 22bd a33c 052a c1bd 2553 afbd 9448 4ebd
00000200: d870 373d db87 4c3d 986b 8e3d 67e7 45bd
00000210: 9ce8 603d e9a5 f8bd 0782 613d 4363 be3d
00000220: 4d88 3c3c 5507 ce3b 0fa6 bcbc f6a7 d6bc
00000230: 942c 973d bc31 473d 797d d83c 71d6 4dbd
00000240: 81b5 0cbd 5818 4a3d f479 8f3d b84c 47bb
00000250: 2eeb b03c 40c3 89ba 6290 e6bc 7685 a43d
00000260: 757a c5bc 4933 bd3b 7d91 1b3d 7fe1 18bd
00000270: 0df7 03bd 80aa a53c c921 1b3e c53d 693d
00000280: cf3f 2bbd 4ac7 513c 3ab5 783d 6c53 a33c
00000290: 8b93 463d edb4 88bd ca69 663d ac37 673b
000002a0: dc35 b9bd 1f40 b73d 1333 a33b 82a9 c33d
000002b0: 928e dfbd d498 763d b826 f43d c3c2 053d
000002c0: b0c7 7dbd f62e d73d 8bc9 abba 196c 02bd
000002d0: be92 d83c 00db 42bc 73cd 893d 2982 923d
000002e0: 96fc 2bbd eaf9 ec3d 974d 4b3e e33c a2bd
000002f0: 07fe f5bd 1ebe 36bd ad35 0abd 1056 65bb
00000300: 132f 74bd 09da 803d 271a 443d b451 893c
00000310: 62ae 453d c63c 74bd 14a3 923d 7319 db3c
00000320: b95e 3b3d 51b8 fcbd 24a9 b4bd a80c 25bd
00000330: 1fea cf3c b098 df3d f86a 7abd 76d4 a9bd
00000340: 87c0 3f3d 4b20 ed3d b9b6 eabd d8d6 21bd
00000350: 99ab 86bd 435b 3ebd db68 a93b 5b63 f83c
00000360: 7724 00be ddf6 23be 973c c23c ade2 c1bd
00000370: e8f2 ad3c 80d4 dd3c 45db 05be f61e a4bc
00000380: cc15 263d b6af 1d3d e9a9 93bd 95cf d8bd
00000390: 2cb4 a03d ce4d e43b 89e1 bdbd 540b b6bb
000003a0: ef37 7fbd 57af ebbc 350f 003c 8141 5e3d
000003b0: aee0 68bd f1eb a2bd 4ccc 8bbd 8e20 d7bc
000003c0: 02e7 2b3c 2787 edbd ee19 b43c a243 7abd
000003d0: 2d16 0d3d b980 73bc a598 56bd 6aff 4f3c
000003e0: 32fc 243d 1ee6 ab3d df22 9fbd 9d70 c93d
000003f0: 0ab0 1f3d 80b5 8bbd 7435 983b 5632 fc3c
0.055764407 -0.0058346363 -0.025374718 -0.08816859 0.0877885 0.02833541 0.0067013684 0.009182097
0.049367126 -0.07042983 0.04517737 0.04399724 0.10395881 -0.0017456347 0.056678724 0.06439907
0.06166624 0.057020914 0.067294724 0.016646717 -0.077726364 -0.04285552 0.003754597 0.11478671
-0.053237066 -0.17463118 -0.00709475 0.18677217 -0.020406483 0.08796323 0.04368501 0.062065285
-0.056463506 0.0031108914 0.15927908 -0.116021074 0.04710513 -0.03377638 0.014321477 -0.044677183
-0.055410895 0.17447235 0.055496715 -0.053096343 -0.029360814 0.012794769 0.06553833 -0.0059644547
-0.030832943 -0.011756008 0.011975802 0.14711668 0.038999002 0.050406795 0.040679503 0.002370496
0.120288804 -0.01861276 0.08361894 -0.06169535 0.018861623 0.0009994134 0.03467722 -0.0766786
0.020891113 -0.032995418 0.09828736 0.17962794 -0.021071965 0.0281941 0.03360732 0.07232185
-0.086301856 -0.12522893 0.0019339105 -0.029531531 0.12905739 0.0854526 -0.09524266 0.06320074
-0.10651123 -0.0095818555 0.057744466 -0.06846146 -0.014194624 -0.09899247 -0.02541358 0.005214322
-0.059099715 -0.060314637 0.13689445 -0.097458936 0.031894866 -0.1701184 -0.120282285 -0.06279731
0.05447078 0.008520364 -0.029228924 0.048434425 0.086987 -0.050011758 -0.0019398134 -0.103954956
-0.083795324 0.040403318 -0.03119221 -0.03930899 0.040680557 -0.06686039 -0.017113937 0.12673552
0.013490403 -0.124450676 -0.050688904 0.021894617 -0.069397055 -0.087823555 -0.03608849 -0.07037167
-0.007800933 -0.022861334 -0.057394587 -0.03939843 0.019987646 -0.09431843 -0.085607804 -0.050362185
0.04478535 0.04993425 0.06954116 -0.048316386 0.054909334 -0.1214102 0.055055644 0.092962764
0.011507106 0.006287495 -0.023028402 -0.026203137 0.073815495 0.048631415 0.026427018 -0.050253335
-0.034352783 0.049339622 0.070056826 -0.0030410718 0.021596517 -0.001051046 -0.028145019 0.08033268
-0.024106244 0.005773936 0.037980545 -0.037324425 -0.032218028 0.020222902 0.15149607 0.056943674
-0.0418089 0.012803862 0.060719706 0.01993724 0.04848055 -0.06675134 0.056253232 0.0035280986
-0.09043476 0.08947777 0.0049804538 0.095538154 -0.10915865 0.060204342 0.119214475 0.032656442
-0.061958015 0.10507004 -0.0013106329 -0.03184137 0.02643716 -0.011893034 0.067286395 0.07153732
-0.04198893 0.11571105 0.19853817 -0.079217695 -0.120113425 -0.044614904 -0.033742595 -0.0034993924
-0.059615206 0.06291587 0.047876503 0.016762592 0.048262008 -0.05962827 0.07160011 0.026745534
0.04574463 -0.12339843 -0.088213235 -0.040295273 0.025380192 0.10917795 -0.06113717 -0.08292477
0.046814468 0.11578425 -0.11460633 -0.03951153 -0.065756984 -0.046473753 0.0051699704 0.030320814
-0.1251391 -0.1601214 0.023710532 -0.09467063 0.02123399 0.027078867 -0.13071926 -0.020034295
0.04054813 0.03849765 -0.07210142 -0.10586468 0.07846865 0.006967283 -0.09271533 -0.0055555496
-0.0623092 -0.028770132 0.007816126 0.05426169 -0.056854896 -0.079551585 -0.06826076 -0.02626064
0.010492088 -0.11598044 0.02198502 -0.061099656 0.034444977 -0.014862233 -0.052391667 0.012695173
0.040279575 0.08393501 -0.07770323 0.098359324 0.038986243 -0.06821728 0.004645044 0.03078572

fc2.bias f4 [64]
00000000: f3ee 763d d827 cabd b9d3 083e e816 9dbd
00000010: 6ae9 71bd f50a 2cbc 5d48 9cbc 8615 c83d
00000020: 6702 113c cfe7 f53b c481 e53c a645 6bbd
00000030: 432a 5dbc b6f6 ab3b 0216 483d fa3c 913c
00000040: 3e8d 96bc 0a03 2b3d b28d 4b3d 5194 e6bc
00000050: 2916 7dbd 8ebe 7c3c d4e4 a63d 73a4 e4bd
00000060: 31f3 393c 0af1 e33d f79d c93d dbfd afbc
00000070: 3085 8dbd 339d 17bd 78be b1bb 961a 893d
00000080: 0915 bdbd 27c2 c23c e79b a43d 3af9 543d
00000090: d0f4 383c 8cfd 5bbd 1c50 493d f348 ca3c
000000a0: f1e9 293c 9895 c9bd ed65 7fbd 46a0 9b3d
000000b0: a720 793d f6e1 143e 75b5 c3bd 8847 0bbe
000000c0: 376e ebbc 29db 1dbd ad54 9d3d b02d 80bb
000000d0: a4f1 88bc 289e 6e3d a026 4d3d b503 3cbd
000000e0: 862d 15bd 1238 4f3d 410f 44bc 9e81 8cbd
000000f0: 6428 053d 72eb d03d 0a46 b93d aca7 ab3c
0.060286473 -0.09870881 0.13362016 -0.07670385 -0.05906049 -0.010500659 -0.019077474 0.0976973
0.00885067 0.0075044404 0.028015979 -0.05743947 -0.0134988455 0.005247916 0.048849113 0.017729271
-0.018377896 0.041750945 0.049695678 -0.028146895 -0.06178871 0.015426291 0.08149114 -0.11164179
0.011349485 0.11129959 0.098445825 -0.021483352 -0.06910169 -0.03701515 -0.005424317 0.06694524
-0.09232528 0.02377422 0.080375485 0.051995493 0.011288837 -0.053708598 0.049148664 0.024692988
0.010370717 -0.09842986 -0.062353063 0.07598929 0.060822155 0.14539322 -0.095560946 -0.13601506
-0.028739078 -0.038539086 0.07682166 -0.0039116964 -0.016716786 0.0582563 0.050085664 -0.045901973
-0.036420368 0.050590582 -0.011966527 -0.0686066 0.032509223 0.10201158 0.09046562 0.020953976

fc3.weight f4 [3, 64]
00000000: ecc7 08be 81e1 cebd 3586 e03d 0278 82bd
00000010: cce8 b6bd 055d 113e 0011 203d 8070 6cbd
00000020: 9b78 233e af41 23be 111c f4bd 7634 ebbd
00000030: dee8 e93c cf11 7b3d a8b5 15be dc4a 90bd
00000040: 5fac 233e 224f cbbd 2637 433d e0e1 c6bd
00000050: d122 96bc f315 133e 7674 063e 6580 04be
00000060: 7300 97bd f27d 113e 2297 5fbc 85ba 2e3e
00000070: 88b4 ae3d c283 1d3e 9d66 85bd 5586 5a3d
00000080: e97d a1bd 80c2 4bbd 7a3c cc3d fc58 3dbe
00000090: cb4b 0a3e a170 233e 25e7 31be 3e85 323e
000000a0: 5a97 14be 75d4 ecbc af39 30be bd70 06bd
000000b0: 3273 133e 10b5 483d 2a0c 04bd 1c26 dabd
000000c0: dde4 6dbd ca87 08be b00f 03be 8c33 0f3e
000000d0: 01bb 6dbd 29ac 7c3d dea9 89bd a13f dabd
000000e0: bdc6 8bbd ccc3 223e 96dd ba3d 0453 c8bd
000000f0: 6193 49be 23a3 a0bd 9ebd a53d 2187 e1bd
00000100: 175a c93b a612 65be 81e9 3b3e 0832 21bd
00000110: 1a1d 1bbe 641f e7bc a662 4c3e 40b0 4d3b
00000120: 9074 d43d 3d6e 023d 778e f33c ef16 56be
00000130: 0a9d 163e 2cc0 183e 92bf 07be 3c5d d8bd
00000140: 3974 2c3e dcdd fcbc 39dd 313d e19a f63c
00000150: aa53 29be 51d3 953d dfae f93c 9990 d4bd
00000160: 6046 fabd bd7b 513e 7cb9 223e 8c68 28bd
00000170: 8f67 90bd da14 c1bc a892 d8bd ede4 1a3e
00000180: 2962 f0bd 2f1e 19be 330a b2bd 2036 fbbc
00000190: 5bb4 fc3d 3a2d ed3c c83a 8fbd 5ef8 cabb
000001a0: 1df7 62be 9eab 86bd 6495 9fbd c581 00be
000001b0: 7672 67bb 6742 c23d e4a1 09be ca90 22be
000001c0: 8b2d efbd 4520 0f3c 0a81 cd3b 7ae2 77bd
000001d0: aff9 0abe 1439 123e cbe7 60be 8d89 bdbc
000001e0: ec84 91bd 409b 103d 91bb 4fbc a7a7 82bb
000001f0: 1f76 0fbc f889 2b3d 7fd1 4f3d 7921 3abe
00000200: e7c9 023e 4620 6dbe de18 853a da54 f3bd
00000210: fa68 29be 526f 6dbd 6d13 dd3d cda1 153e
00000220: c039 513e 3758 213e 01bb 083e 5822 8f39
00000230: 9b82 013e ae8f f93d 4464 febd 2d91 30be
00000240: 0e3b 6b3e 9883 4a3e 717b 8a3d 720b c63d
00000250: 4de2 a3bd 1b41 2abd e200 7abe f79a 12be
00000260: 37a9 04bd a2d4 2b3e 7eac ed3d 68e4 7bbe
00000270: ce92 14be d63b c3bd 41ea 4dbe 95b7 a43d
00000280: ea1f 2abe bc92 aabd a9cf 10be b685 833e
00000290: fe4a 973d 68c7 82be 9927 31bd 8f64 39be
000002a0: 0513 56be 88d3 4abd 64e2 113e 600a 4cbd
000002b0: 8d7e a2bd e982 bd3d 7b00 98bd 49fe 56bd
000002c0: 3614 a9bd 4b4c 7a3d 6af5 3d3e a79f 22be
000002d0: 464a a8bd 0ad7 403e 9efd 64be 6627 41be
000002e0: ba97 09be 2379 7fbe 04ab 85be 952a 893d
000002f0: 8aca 043e f536 123e e0ff 743d 4ab9 d0bd
-0.13357514 -0.10101605 0.10963098 -0.06370546 -0.08931121 0.1419564 0.039078712 -0.057724476
0.15963976 -0.15943025 -0.11919416 -0.114846155 0.028553423 0.06129628 -0.14620078 -0.07045528
0.15983723 -0.09927203 0.047660016 -0.09711051 -0.018327149 0.14363842 0.13130364 -0.12939604
-0.073731326 0.142082 -0.013646873 0.17063339 0.08530527 0.15382293 -0.065137126 0.053350765
-0.078853436 -0.049746037 0.099724725 -0.18490976 0.13505475 0.15960933 -0.17373331 0.1743364
-0.14510861 -0.028909901 -0.17209505 -0.03282236 0.14399412 0.0490008 -0.032238163 -0.106518
-0.05807959 -0.1333305 -0.12798953 0.13984507 -0.05803967 0.061687622 -0.06721853 -0.106566675
-0.06825016 0.15895003 0.091242954 -0.09781459 -0.19685127 -0.07843616 0.08092807 -0.11012102
0.0061447727 -0.22370395 0.18350793 -0.039354354 -0.1514782 -0.02821321 0.19959506 0.003138557
0.10373795 0.031843413 0.029731018 -0.20907186 0.14708343 0.14917058 -0.13256672 -0.10564658
0.1684121 -0.03086751 0.043423865 0.030103149 -0.16535822 0.07315696 0.030478893 -0.10379142
-0.12220454 0.20457359 0.15891069 -0.04111533 -0.07051002 -0.023569513 -0.105748475 0.15126391
-0.117374726 -0.1495292 -0.086933516 -0.030665457 0.123390876 0.02895223 -0.069936335 -0.0061941585
-0.22164579 -0.06575702 -0.07792166 -0.12549503 -0.0035316027 0.094853215 -0.13440663 -0.15875545
-0.116786085 0.008735721 0.006271486 -0.06051872 -0.13571809 0.14279586 -0.21963422 -0.023136878
-0.07105431 0.035304308 -0.012678997 -0.003987271 -0.00875619 0.041879624 0.0507369 -0.18176831
0.12772332 -0.23156843 0.0010154506 -0.118814185 -0.16543952 -0.05796749 0.10794721 0.14612503
0.20432186 0.15756308 0.13352586 0.00027300674 0.12647478 0.12185608 -0.12421468 -0.1724288
0.22971746 0.19776762 0.06761826 0.09670152 -0.08002148 -0.041565996 -0.244144 -0.14316927
-0.03238794 0.16780332 0.11605166 -0.24598849 -0.14509127 -0.09532897 -0.20108892 0.08042828
-0.16613737 -0.083287686 -0.14141716 0.2568795 0.073873505 -0.2554276 -0.043250654 -0.18104766
-0.20905693 -0.04951814 0.14246517 -0.049814582 -0.07934294 0.09253485 -0.07421967 -0.0524886
-0.08255808 0.061107915 0.1855065 -0.15881215 -0.082172915 0.18832031 -0.22362372 -0.18862686
-0.13436785 -0.24948554 -0.26107037 0.06697575 0.12967888 0.14278777 0.059814334 -0.10191591

fc3.bias f4 [3]
00000000: 89ad afbd f15d 343e 444b 1b3d
-0.08578021 0.17613961 0.037913576
