ReinforcementLearning/benchmarking/policy_SA.pt (torch, 39313 bytes, 6 tensors)

fc1.weight f4 [128, 4]
00000000: 4496 2d41 2dc6 d8c0 99ff 2b41 709d 2441
00000010: 70f3 44c0 3696 1441 0601 16c1 0cd4 8841
00000020: 9a13 6e41 7602 f2c0 cc88 3dc0 29c7 c2bf
00000030: 84c1 27bf 9ac4 cb40 23a3 8f40 18e5 ac40
00000040: 6105 5dc1 9e07 2ac1 99bd 7a40 2e43 a23f
00000050: e8f0 8bc0 944b 24c1 f12f 8a40 72e6 2141
00000060: 62ce 27c1 ae72 a1c0 1257 5fc0 ee9e 67bf
00000070: 2551 1741 28b6 bebe 5de0 90c0 6276 e03f
00000080: 39de dbc0 8b6e 7641 2cf2 a53f 4ff9 0341
00000090: a781 1540 b2a0 28c1 5064 a3bf 16a5 79c1
000000a0: a5bb 1bc0 b42b c4c0 a9f5 8841 3c8e 9240
000000b0: 342e 1740 3919 96bf 547b 58c0 160d 7ac1
000000c0: 6e2c 5d41 910b bfbf c865 09c0 f8d3 8540
000000d0: 190a d9c0 83c7 4cc1 b88f 34c1 b6aa 2141
000000e0: 7069 7dc1 683c 8dc0 a04a 76c0 6080 f6bf
000000f0: 719e 0a41 5873 3740 cd9d eabf 6d9e 86c1
00000100: 1b9d 1b40 a09f 7a41 3c3b 2f41 6bf5 1241
00000110: dae6 a140 5814 8fc1 c0d5 d2bd e95a 8241
00000120: 63db 3040 4095 cfbc a2ac 5ebf aafe 1940
00000130: 8001 7641 b85b 9f40 c4ea 7d40 c61c 5ec0
00000140: 2211 5340 509e 8240 c9da 1241 68f3 4b41
00000150: 5092 9b3e d36d 0141 a9f6 f440 2410 4ec1
00000160: bd4b a441 93a7 b2c0 1c7d 8cc1 9ffe a440
00000170: a7c7 d340 84b0 b2c0 1666 9a41 8196 0441
00000180: 5597 c241 7e1b 5fc0 745d 29bf 8fbe 07c1
00000190: 8eb9 51c1 188e 0f41 4517 ed40 2a17 7bbf
000001a0: 3204 8340 bc67 45c0 1b35 20c0 3cd5 85c0
000001b0: 0cc5 6040 82d0 b9c0 769e 43c0 526f 7c3f
000001c0: 1145 f53f e6c7 eb40 e5b8 3f41 6cdb a940
000001d0: 4c3b ecc0 aba3 a6c0 75c1 3d40 d6f3 3640
000001e0: 93e5 ec40 4d3a eebf a9f0 9541 f6f9 65c1
000001f0: 1846 e4c0 77c7 87c0 00c8 1bbc d629 0a41
00000200: 9c86 653f b886 8940 98f7 8c41 16ce 8fc0
00000210: f458 87c0 3ae4 12c0 6e3a cc40 4dea ebc0
00000220: 6db9 45c0 e3fb a2bf 2e92 7340 60c2 54be
00000230: 22ba 49c1 121f 8c40 0952 bbc0 e482 6240
00000240: ab67 1840 3a2d 63c1 f4c7 fa40 080e 8740
00000250: 691b 4f41 272c 6741 70c8 2141 fe6a fb3f
00000260: 9ef7 e840 ac84 a8c0 56e3 04c0 b0eb c7bd
00000270: 442f 68c0 21b0 c6bf cdcb 4fc1 020a 7040
00000280: 9c43 fdc0 cce5 6dc0 92a0 13c1 1e26 21c1
00000290: 3bb6 0dc1 941a c740 86b4 18bf ac42 51c0
000002a0: c763 ecc0 bb24 3ac1 c1d4 1641 3f6d e440
000002b0: cab4 cb40 5c81 c240 e388 0e41 3425 1bc1
000002c0: a60d 47bf 5ce2 0d42 dc9d e7c0 dbd6 01c1
000002d0: 0e2e f9c0 6806 7dc0 90e4 20c0 f7e0 f140
000002e0: b819 b941 3096 c8bd e09c 4040 874e 0dc1
000002f0: 7a8f 5bc1 7128 19c1 6f5e 8dc1 ed48 c7c0
00000300: 1913 8cbf 7c22 5bc1 b048 b0c0 5e44 3141
00000310: 6c9e 1c41 78b8 4040 a65e f8c0 e425 8d3e
00000320: c43b 1441 5ab0 d2c0 c22b 3f40 050f 7e41
00000330: 9f64 a441 c3fb f1c0 ed38 93c1 747f 01c0
00000340: d0e2 0bc0 e728 83c1 b22a b7c0 b335 c5c0
00000350: c3fe e6c0 3245 3941 f585 1e40 ee22 8ac0
00000360: a32d 2e41 594e 15c1 3166 3341 9108 f440
00000370: c8e2 cf3f 1ba9 af40 e379 8f41 5310 fe40
00000380: 466a d740 7825 12c1 2c27 c4c1 b064 62bf
00000390: e157 e940 568e 06c0 3d68 0ec1 ecdd b041
000003a0: bd33 4cc1 3a9a 04c1 5f75 1741 c13a 0940
000003b0: 6c9a 1540 2066 fcbd fb6e 2ec1 f52b 9940
000003c0: 4204 d6c1 2cbb 2a41 5955 65c1 acd5 1941
000003d0: 8c8e 1841 bd3d 3340 1204 c6c0 9b70 1241
000003e0: 08ab 82c0 ddf4 47c1 59c7 da40 c25a 3141
000003f0: 2e7f 0ac1 46eb a8c0 1295 3840 e92c 19c1
10.849186 -6.7741914 10.749902 10.288437 -3.0773582 9.286673 -9.37525 17.103539
14.879786 -7.5628004 -2.9614744 -1.5217029 -0.65529656 6.367749 4.488664 5.4029655
-13.813813 -10.62686 3.9178221 1.2676752 -4.3731575 -10.268452 4.318352 10.118761
-10.487886 -5.045249 -3.4896894 -0.9047688 9.457311 -0.3724835 -4.527388 1.7536128
-6.870877 15.401988 1.296453 8.248366 2.3360384 -10.539232 -1.2764988 -15.602804
-2.433328 -6.130335 17.119951 4.5798626 2.362195 -1.1726447 -3.3825274 -15.628195
13.823347 -1.4925405 -2.1468372 4.182125 -6.7824826 -12.798709 -11.285088 10.104177
-15.838242 -4.413624 -3.8483047 -1.9257927 8.663682 2.866415 -1.8329407 -16.827356
2.431464 15.663971 10.9519615 9.1849165 5.05943 -17.884933 -0.10294676 16.29439
2.7633903 -0.025339723 -0.86982167 2.4061685 15.375366 4.979946 3.967454 -3.4705062
3.2979207 4.0818253 9.178414 12.746925 0.30385065 8.089313 7.65511 -12.878941
20.536982 -5.582956 -17.561089 5.1560817 6.6181216 -5.5840473 19.299847 8.286744
24.323893 -3.486053 -0.66158223 -8.484023 -13.107801 8.972191 7.4090905 -0.9808222
4.094262 -3.0844564 -2.5032413 -4.1822796 3.5120268 -5.8067026 -3.0565467 0.9860736
1.9161702 7.3681517 11.98264 5.308035 -7.3822384 -5.207479 2.9649327 2.8586326
7.403024 -1.8611542 18.74251 -14.373526 -7.1335564 -4.2430987 -0.009508133 8.635214
0.8965852 4.297695 17.620895 -4.493907 -4.2296085 -2.2951798 6.3821325 -7.372351
-3.0894425 -1.273312 3.805797 -0.20777273 -12.607943 4.378793 -5.853764 3.539239
2.3813274 -14.198542 7.8369083 4.220463 12.944192 14.448279 10.111435 1.9642026
7.2802267 -5.2661953 -2.0763755 -0.09761751 -3.6278849 -1.55225 -12.987256 3.7506108
-7.914503 -3.7171507 -9.226702 -10.071806 -8.85699 6.2219944 -0.59650457 -3.2696943
-7.38718 -11.633967 9.426942 7.1383357 6.365819 6.078291 8.90842 -9.696583
-0.777552 35.471054 -7.23802 -8.114955 -7.786872 -3.953516 -2.5139503 7.5587115
23.137558 -0.09794271 3.009575 -8.831672 -13.722528 -9.572373 -17.67111 -6.227652
-1.0943328 -13.695919 -5.508873 11.079191 9.788677 3.011259 -7.761554 0.2756797
9.264591 -6.5840273 2.9870458 15.878667 20.549131 -7.5619826 -18.402796 -2.0234041
-2.1857185 -16.394972 -5.723962 -6.162805 -7.218599 11.579393 2.476926 -4.316764
10.886142 -9.331628 11.212449 7.6260457 1.6241083 5.4893928 17.934515 7.9394927
6.731723 -9.134148 -24.519127 -0.88434887 7.2919774 -2.1024375 -8.900449 22.10836
-12.762631 -8.287653 9.466155 2.144211 2.3375502 -0.12324166 -10.902095 4.786616
-26.752079 10.670696 -14.333337 9.614666 9.5348015 2.8006432 -6.187997 9.152492
-4.083378 -12.497281 6.8368344 11.084658 -8.65605 -5.27872 2.8840985 -9.573464

fc1.bias f4 [128]
00000000: 4fa2 b9c0 5880 7ec0 68d0 043f 6e65 09c1
00000010: 974d 40c1 1b5d 3fc1 5c6b 36c1 06da 5440
00000020: d8e8 5ac1 d319 01c1 8eb3 83c1 b8bc 7140
00000030: 9276 7fc0 e799 6d41 9c15 3241 68dd d83e
00000040: 3d89 cfc0 3012 183f 85f7 d641 3c8e 6c3f
00000050: 7015 7ebf 3e38 5c40 fcac edc0 01d9 14c1
00000060: e0de f540 1f3f 18c1 40d0 14c1 64cd 5140
00000070: c03b 7cc1 96e7 54c1 51ed 4341 006c f9bc
00000080: 1e23 33c1 688d 8d40 af78 a0c1 e890 b140
00000090: fe91 9ec0 42a8 1340 c20d 14c1 2c34 bb3f
000000a0: 2286 4abf f451 08c0 34f8 14c1 5efb b040
000000b0: e893 8a41 144f 42c1 12a4 4cbf 6ba5 bb41
000000c0: 92d1 06c1 30ab 23c1 e69a 68bf c289 7640
000000d0: 7a07 2641 b04c 0d41 3a30 10c1 fea9 2841
000000e0: ea3f 36c1 6c7f a841 22da 6ec1 06ae 9541
000000f0: 69ab 06c1 90dc 2e41 6384 d940 4514 d23f
00000100: 33f2 8c40 3232 12c0 1662 3ec0 d61f 3e40
00000110: daae acc0 2d0e 5d40 0c35 8341 5c69 e5c0
00000120: 06d7 7bc1 467a a8c0 4ec6 9140 cd7b c1bf
00000130: e021 7dc0 3f58 bac1 119f 5cc1 5ac6 3cc0
00000140: 4da0 1040 67cf e1c0 841d 1941 3951 1ec1
00000150: 6e10 7941 422f 7f3f 1426 d7c0 504c d73e
00000160: c154 da40 48be 55be 0809 1441 231a 61c0
00000170: 6cda 6e40 b44c 4e41 137b 01c1 6caa 53bf
00000180: fae0 6640 5187 30c1 e8d5 2741 2f47 0741
00000190: 408e 94c1 6a25 5f40 bc16 89c0 8418 03c1
000001a0: ffae 6540 f850 2841 0800 6ebe 5237 ee40
000001b0: 54d5 8540 b82e 0e40 6aee 29c1 04fc 81c1
000001c0: b64c 0041 61a2 8e40 719f b540 511b 0740
000001d0: d8d4 1cc1 3181 ac40 3096 31c0 3a83 3c40
000001e0: 9cd1 5d40 325f 5c40 7077 69c0 77a5 be3f
000001f0: e212 edc0 4b15 b0c0 f0c4 cc3e 8ea6 35c1
-5.801063 -3.9765835 0.518805 -8.587263 -12.018943 -11.960231 -11.401211 3.325807
-13.681847 -8.068805 -16.462673 3.7771435 -3.991612 14.850074 11.130276 0.4235642
-6.4855027 0.5940275 26.87086 0.9240453 -0.9925146 3.4409328 -7.4273663 -9.302979
7.6834564 -9.51541 -9.300842 3.278161 -15.764587 -13.30654 12.245439 -0.030447006
-11.196074 4.4235115 -20.058928 5.5489388 -4.9553213 2.3071446 -9.253359 1.4625297
-0.7911092 -2.130002 -9.310596 5.5306845 17.32222 -12.144306 -0.7993785 23.45577
-8.426165 -10.229294 -0.90861356 3.852158 10.376825 8.831223 -9.011774 10.541502
-11.390604 21.062218 -14.928255 18.709972 -8.416848 10.928848 6.7974105 1.6412436
4.4045653 -2.2843137 -2.9747367 2.970693 -5.396344 3.4539902 16.400902 -7.1691113
-15.739996 -5.264926 4.555457 -1.5115906 -3.9551926 -23.293089 -13.788835 -2.9496064
2.259784 -7.0565677 9.569706 -9.89483 15.566511 0.99681485 -6.723398 0.4205041
6.822846 -0.20873368 9.252205 -3.5172203 3.7320814 12.893726 -8.092547 -0.8268192
3.6074815 -11.033036 10.489723 8.454879 -18.569458 3.4866586 -4.284025 -8.193485
3.588806 10.519768 -0.232422 7.444253 4.182291 2.2216015 -10.620707 -16.248055
8.018728 4.4573216 5.675713 2.1110423 -9.801964 5.3907704 -2.7747917 2.9455094
3.4659185 3.4433103 -3.647915 1.4894246 -7.408555 -5.5025992 0.39994 -11.353163

fc2.weight f4 [64, 128]
00000000: 4032 e03d 31e5 82c1 c09e 3141 18a5 3ec0
00000010: dcd9 9bc0 9f84 52c0 3404 033f 08a1 383f
00000020: d899 12c1 8ed1 9ac1 cc68 2241 12e4 9740
00000030: 4a68 f540 0286 1640 fe48 fb40 8073 5541
00000040: a485 01c0 a871 2e41 c7f3 2541 392a e0c0
00000050: 7b0a 7441 2e71 5740 5226 4040 d652 0241
00000060: 22b1 8140 0026 77bf 0d5f 11c1 530f a940
00000070: e676 63c1 b7bf 33c1 46ae 6ec1 8063 f13e
00000080: 0ae0 3dc1 809d 95bf 0830 5c40 1885 803f
00000090: 265d 3540 1fec cebf d800 1c40 e813 4440
000000a0: 24e4 c5c0 f4f1 b340 cafc 8e41 ef4f 7341
000000b0: 5252 6ebf cc32 01c0 145e 53c0 0666 a240
000000c0: db7a 9cbf cc51 47bf bc60 ed40 a2d1 40c0
000000d0: 200f 8dc1 07c3 4bc1 4145 7041 eaee dcc0
000000e0: 8026 f940 c059 d4bc 8915 c63f 8a2c bb40
000000f0: 1f13 dec0 6edb f940 b0ee cac0 ec06 9e41
00000100: 548b b040 d48e f7c0 d28d 2fc0 b05a cac1
00000110: 937a 4441 e4b1 8340 3438 7e40 20b9 8fc1
00000120: 0ae1 61c1 543e 0241 1c02 0c41 4abb 9fc0
00000130: ff88 21c0 8f7e 35c1 a0fc 5940 9797 fb3f
00000140: 8c00 e540 3081 6ec1 d7c9 27c1 10d2 46c1
00000150: a8df 1dc1 8845 50bf 103a 163f 5f19 c4bf
00000160: 4d7a d340 726d dd40 5c8c 7941 7706 b43f
00000170: ad99 42c1 69fc b33f 2576 82c1 684d 8a41
00000180: 9486 f640 49c4 df40 e5b5 7a40 32f9 3141
00000190: 00ff 1ac1 a284 00c1 58a2 ef40 5d01 4f40
000001a0: 333f 3341 90d6 a6c0 065d 0fc1 9c5f eac0
000001b0: 3199 d241 c3c9 f8c0 a320 b6c0 99bf 2641
000001c0: 4e9d 56bf 6a7b 2dc1 6c86 71c0 8f9f d8c0
000001d0: 7007 71c1 de89 35c0 b2d1 ab40 47b1 b2bf
000001e0: 2336 17c1 16a5 2441 97b2 c440 09f4 8e40
000001f0: 7a03 23c1 60bc 983d 006e 43c1 9062 1a41
00000200: caea 27c1 f151 1940 24b2 1440 686b ca40
00000210: a58e aac1 d2dd 4ec0 00fc 99c0 7880 6ac1
00000220: 0309 c43f 84d9 1541 1335 25c1 bfc3 0f41
00000230: 6406 0fc1 1e54 84c0 ea0a 7241 ac9e 0f41
00000240: b985 bac0 936d 4941 403f 5240 9fcf 21c1
00000250: 48e4 0ac1 6242 efc0 6290 08c0 9704 98c1
00000260: b016 6741 8d36 fbbf 8a59 9e40 816e 70c0
00000270: f05f 2e3e d6dd 873f 3aef 6dc0 962b 673f
00000280: 3c1f 5440 8f65 b0c1 e4d2 3d41 fa45 1c41
00000290: fd78 8a41 e43f c640 acb4 1540 a0c5 c2bd
000002a0: e05a ae3e 7a4a afc1 e2c6 1a41 ea33 81c1
000002b0: 0050 73c1 2fdf 0840 d7e0 e5bf 0cb4 dac0
000002c0: 347f 083f 9d0d 17c0 87c2 f7c0 a078 bc3e
000002d0: 7855 2cc0 e809 3e40 aa41 ccc0 4760 7b41
000002e0: 70d1 a040 0001 5ebd 86af 8141 1e27 5bc1
000002f0: ae9f c83f 0000 0c40 a4d6 d140 beb5 8e41
00000300: 479e 9fc0 0a5f 9540 1e87 1341 2f5d 89c1
00000310: c487 c241 c0e4 4140 fa31 a440 5c2d cf40
00000320: 0e3b 4ec0 5030 cbbe 8aa6 ef40 22a1 cb41
00000330: 3f18 6ec1 5b03 5941 eb9a a140 318e 96c0
00000340: b849 94c1 8ab0 92c0 04f6 eb40 26d6 a540
00000350: c054 6abd babb c140 63f0 1341 b6bc d741
00000360: f20f 51c1 a61c 58c1 dc11 d840 b0d3 29c0
00000370: e30b b3c0 b53d 0ac1 4341 06c1 0c8b 0bc0
00000380: 7e2d 2ebf 7f16 a7c0 79e3 8ec0 0041 4940
00000390: e538 aec1 d4df 0ec1 cc1a 6840 d8ad 5940
000003a0: 2f87 bfc0 73b1 8641 10d8 7e41 0a02 46c1
000003b0: f6d2 23c1 4ef3 05c1 b724 70c1 2ee0 8a41
000003c0: 1bde 08c1 d091 f840 eb1b a13f 1067 a241
000003d0: a866 563e aaed bc3f d796 d6c0 b861 8141
000003e0: 3d11 13c1 9093 1141 7d9a 4d41 1896 35c1
000003f0: 5933 90c0 0583 3dc0 6f71 cabf 3b8a ad40
0.109470844 -16.36191 11.101257 -2.9788265 -4.870344 -3.2893445 0.5117829 0.72120714
-9.1625595 -19.352322 10.150585 4.7465906 7.6689806 2.3519292 7.85266 13.340698
-2.0237818 10.902748 10.372016 -7.005154 15.252559 3.366283 3.002339 8.145224
4.0528727 -0.9654236 -9.085706 5.2831206 -14.216528 -11.234305 -14.917547 0.47146225
-11.867197 -1.168869 3.4404316 1.0040617 2.8338103 -1.6165808 2.4375515 3.063715
-6.184099 5.6232853 17.873432 15.207015 -0.9309436 -2.0187254 -3.302617 5.074954
-1.2224993 -0.7785919 7.4180584 -3.012795 -17.632385 -12.735114 15.016908 -6.9041643
7.7859497 -0.025921702 1.5475322 5.849187 -6.939834 7.808036 -6.3416367 19.75338
5.517008 -7.736185 -2.743031 -25.294281 12.279925 4.115465 3.9721804 -17.965393
-14.117441 8.140217 8.750515 -4.9916124 -2.5239866 -11.343398 3.406044 1.9655637
7.1563168 -14.90654 -10.486777 -12.426285 -9.867104 -0.81356096 0.58682346 -1.5320243
6.6086793 6.91961 15.596767 1.4064473 -12.1625185 1.4061404 -16.307688 17.287796
7.703928 6.9927106 3.917352 11.123339 -9.687256 -8.032381 7.4885674 3.2344582
11.2029295 -5.2136917 -8.960211 -7.324171 26.3248 -7.774629 -5.691484 10.421777
-0.8383378 -10.84263 -3.7738295 -6.7694774 -15.064316 -2.8365397 5.3693476 -1.3960351
-9.450717 10.290304 6.1468005 4.4672894 -10.188349 0.07457805 -12.214355 9.649063
-10.494822 2.3956263 2.3233728 6.325611 -21.31965 -3.2322888 -4.8120117 -14.656364
1.531525 9.365604 -10.325458 8.98529 -8.93906 -4.135268 15.127665 8.976238
-5.8288236 12.5892515 3.2851105 -10.113189 -8.680733 -7.4768534 -2.1338124 -19.002241
14.443039 -1.9626023 4.94843 -3.7567446 0.17028785 1.0614574 -3.7177262 0.9030088
3.3144064 -22.04959 11.863987 9.767084 17.309076 6.195299 2.3391523 -0.0951035
0.34053707 -21.911366 9.673555 -16.150349 -15.207031 2.138622 -1.7959241 -6.8344784
0.53319097 -2.360206 -7.742496 0.3681078 -2.6927166 2.9693546 -6.3830156 15.711005
5.025566 -0.054200172 16.210705 -13.69705 1.567373 2.1875 6.5574512 17.838741
-4.988071 4.6678514 9.220488 -17.1705 24.316292 3.0295868 5.1311007 6.474287
-3.2223544 -0.39685297 7.4890795 25.453678 -14.880919 13.563319 5.050161 -4.7048573
-18.535995 -4.58405 7.373781 5.182391 -0.05720973 6.054166 9.246188 26.967144
-13.066393 -13.506994 6.75218 -2.6535454 -5.595201 -8.640065 -8.390933 -2.1803617
-0.68038166 -5.221496 -4.4652677 3.1445923 -21.77778 -8.929646 3.6266356 3.4012356
-5.985252 16.836645 15.92775 -12.375498 -10.239004 -8.371901 -15.008964 17.359463
-8.554225 7.7677994 1.2586645 20.300323 0.20937598 1.4760029 -6.705913 16.172714
-9.191709 9.098526 12.850217 -11.349144 -4.506268 -2.9611218 -1.5815867 5.423124

fc2.bias f4 [64]
00000000: f551 c1c0 38c5 cc40 6aaf 25c1 7d1f 77c1
00000010: bbbd fc40 8084 9f40 2fd8 5741 af84 6b41
00000020: 188c 8f40 9af5 80c1 96b7 1b41 4603 0b41
00000030: e8ea 003f d5d6 9ec1 df6b e840 2c0b 56c1
00000040: d08c 86c0 9e37 adc0 a822 05c1 a693 57c0
00000050: dd46 9740 30b5 2f3e acbf 0841 c3c1 dd40
00000060: 1e3c a0c0 f047 8fc0 46d9 25c0 6fd0 e540
00000070: 1273 6040 628b d2c0 e053 d640 5822 083f
00000080: e8cb 9541 cd62 83bf 25f2 26c1 3f8d 3041
00000090: bca4 72c0 4944 b4c0 be33 843f 3873 7041
000000a0: 6c51 9ac1 27b7 7bc1 b248 5240 b851 c540
000000b0: d01d 9940 17e4 b740 faed 92c0 e2cc 8f40
000000c0: eeb2 1b40 649e dd3f f48f 22c1 1bf8 47c1
000000d0: 6adf 13bf 75a7 ef3f 7a71 acc0 b429 34c0
000000e0: 082b 5241 bca2 75c1 3bd2 41c1 7dcd 56c1
000000f0: 6ba6 e0c0 0a0a 5140 3bc7 e43f 175c 5c41
-6.0412545 6.3990746 -10.355326 -15.445188 7.8981605 4.9849243 13.490279 14.719893
4.4858513 -16.119923 9.732321 8.688299 0.5035844 -19.854898 7.263168 -13.3777275
-4.204689 -5.413039 -8.320961 -3.3683867 4.7274003 0.17158961 8.546795 6.9299026
-5.0073385 -4.4775314 -2.5913863 7.1816936 3.5070233 -6.5795145 6.6977386 0.53177404
18.724564 -1.0264527 -10.434117 11.034484 -3.7913046 -5.6333356 1.032829 15.02813
-19.289757 -15.732215 3.285687 6.1662254 4.784889 5.746593 -4.59155 4.49376
2.432796 1.7313962 -10.160145 -12.498073 -0.5776278 1.8722979 -5.388852 -2.8150454
13.135506 -15.35223 -12.113826 -13.425168 -7.0203147 3.2662377 1.78733 13.772483

fc3.weight f4 [3, 64]
00000000: 938b aa3f 70b4 dd40 38da 2c41 a449 a7c0
00000010: b000 193f 6d41 8dc1 7cb1 e240 6adf d4c0
00000020: ed47 dcc0 c0dd 00c0 3ca1 b0c0 d14f f640
00000030: c307 b6c0 9608 aac1 1021 6a3e abda 3fc1
00000040: 2fd7 9140 6b09 9bc0 36fe ce40 5006 0640
00000050: 29a7 2141 c300 7c40 54ca 18bf 8309 fb40
00000060: 3ca5 9ac1 0e0e 8441 31d6 20c1 ccc9 09c0
00000070: 568a 32c1 ea68 15c1 60e1 1141 5c7e 2d41
00000080: 83ee 4641 b0fb 743f ca6d 13c0 f6e6 71c1
00000090: 584d 66be 35a3 5cc1 8123 b3c1 7717 b140
000000a0: 3d34 4941 f300 b240 72b9 7e3f f39e 0040
000000b0: 542a 33c0 d945 71c1 3acb c6c0 28bf 1f3f
000000c0: c2a2 a940 2249 3941 a419 ad3e f281 2d41
000000d0: ecee e3c0 da0a 423f 6c88 d8c0 7cfd d7c0
000000e0: 0e60 9d40 5c56 05c0 3c30 0641 41ac 12c1
000000f0: 666b 1841 f12a bec0 0f05 9fc0 fda4 3d41
00000100: c0f0 2abe f33e 933f 0a74 1040 28e6 d73f
00000110: e581 96c1 973e dd40 c8be 3440 aec9 6741
00000120: 6626 23c1 f47d 8240 f6e4 1d40 ee84 fc3f
00000130: 30e3 d13d be0e bc40 f2e1 a240 fc10 c8c0
00000140: d5f1 2dc1 8274 9f3f 34e6 b8bf b0e6 3341
00000150: 3b19 bac1 74ca 1cc1 7466 4fc1 cefa 67c1
00000160: 1893 2fc0 2e50 d040 8417 4e40 72f3 0d3f
00000170: 7755 7641 885e 6c3f ce72 b040 697d 0641
00000180: 92a1 1b3f ce58 9f3f 2fb8 84bf ccfa 8fbe
00000190: 5550 a93f 55b2 1ac1 c02d 94c0 1e4d 4f41
000001a0: d832 d03e 56e6 0dbf 2418 51c1 34b7 8fc0
000001b0: 3233 78c0 1236 c9bf 94da dd40 8205 2941
000001c0: e14f 7ec1 a7eb 4c41 2d80 4241 a6b1 7341
000001d0: 27c9 3bc1 f3e1 c33f f21d 1141 5e2d 1f41
000001e0: 5ecd 6bc1 156f eec0 8b2f df3f fece 7340
000001f0: cf87 85c0 6e31 6c40 c02b 0641 e59b 6fc1
00000200: c090 6340 0ab8 4d41 ca7b f640 a4f1 e741
00000210: 1448 6ac1 6a55 7cc1 b596 15c1 d1cc 1240
00000220: 6b8e 23c1 e0fe 1741 a823 32bf 9103 bbc0
00000230: 9ca0 5841 52da e540 954d 4cc1 aac2 55c0
00000240: 3b19 64c0 d60c fb40 a068 4241 f8d8 1641
00000250: 3278 5540 2216 5dbf 3168 b83f eabf 18c1
00000260: d559 11c0 7eb7 5bc0 7920 9440 0876 c6c0
00000270: 0bd0 0ec1 0ef7 7fc1 d298 a540 e262 07c1
00000280: a070 9b40 028d d2c0 9046 96bf 2238 86c0
00000290: c2e4 b4c1 8a22 39c1 58ab a9c1 ae20 fcbf
000002a0: ca54 9841 b149 94c1 c0be 8d40 02c6 2041
000002b0: eaf9 9940 b8a4 edc0 f6d9 c940 7638 96c0
000002c0: 047c 5240 421b e5c0 22ea eec0 286c 28c1
000002d0: 8c5b 9540 b231 47c0 4f00 3641 c31b 48c0
000002e0: bf85 9f40 de71 53bf 3e6a 1141 b87c c940
000002f0: 02cf 65c1 d583 29c1 2fd9 1941 be69 bec0
1.3323845 6.928276 10.803276 -5.2277393 0.59766674 -17.656946 7.0841656 -6.652272
-6.88378 -2.0135345 -5.519682 7.697243 -5.6884475 -21.254192 0.22864175 -11.990886
4.5575175 -4.8448997 6.4685316 2.0941353 10.103311 3.9375465 -0.5968373 7.844911
-19.33068 16.506863 -10.052293 -2.1529417 -11.158773 -9.338114 9.117523 10.843349
12.43323 0.95696545 -2.303576 -15.118887 -0.22490442 -13.789845 -22.392336 5.5341144
12.5752535 5.562616 0.9950172 2.0097015 -2.7994585 -15.079553 -6.212308 0.62401056
5.301118 11.580355 0.33808625 10.844225 -7.1229153 0.7579781 -6.766653 -6.749693
4.9179754 -2.083396 8.386776 -9.167054 9.52622 -5.942742 -4.9693675 11.85278
-0.16693401 1.1503586 2.2570825 1.6867113 -18.813425 6.9138904 2.8241444 14.486738
-10.196875 4.077875 2.4670997 1.9728067 0.10248411 5.8767996 5.090081 -6.2520733
-10.871541 1.245743 -1.4445252 11.24382 -23.26232 -9.799427 -12.962513 -14.498732
-2.743353 6.5097876 3.2201853 0.55449593 15.395865 0.92331743 5.5140142 8.405618
0.6079341 1.2448976 -1.0368708 -0.2812103 1.322764 -9.668538 -4.6305847 12.956327
0.4066379 -0.5542959 -13.068394 -4.4911137 -3.8781247 -1.5719626 6.932932 10.563845
-15.894502 12.807532 12.156293 15.230871 -11.736609 1.5303329 9.069811 9.948576
-14.737638 -7.45106 1.7436384 3.8095088 -4.172828 3.690517 8.385681 -14.97556
3.5557098 12.857431 7.702611 28.992989 -14.642597 -15.770853 -9.349294 2.293751
-10.22227 9.499725 -0.6958566 -5.8441854 13.539211 7.1829004 -12.768941 -3.3400064
-3.56404 7.845317 12.150543 9.427971 3.3354611 -0.86361897 1.4406797 -9.546854
-2.271108 -3.4330745 4.628964 -6.201908 -8.925792 -15.997816 5.174905 -8.461641
4.857498 -6.579713 -1.1740284 -4.194352 -22.611698 -11.570932 -21.208664 -1.9697473
19.0414 -18.535982 4.429535 10.048342 4.811757 -7.4263573 6.3078566 -4.694392
3.2888193 -7.1595774 -7.4660807 -10.526405 4.667425 -3.1124082 11.375075 -3.1266944
4.9850764 -0.8259562 9.088438 6.2964745 -14.363039 -10.594686 9.615523 -5.950408

fc3.bias f4 [3]
00000000: 2c5e abc1 339b dd40 66e3 5ec1
-21.420982 6.925195 -13.930517
